model.pth (torch, 437482 bytes, 18 tensors)

layer1.0.weight f4 [6, 1, 5, 5]
0.06454388 -0.074202284 -0.2561106 -0.2763607 -0.15038048 0.09774976 -0.17399926 0.11543258
0.08552256 -0.06980052 0.26404884 0.1330699 -0.13962129 0.13122454 -0.15595241 0.073816605
0.25319055 0.029465694 -0.1322451 -0.033274658 -0.18014294 0.16979061 0.14236037 0.17579037
0.16995095 0.23218508 0.12459414 0.17467156 0.08603397 0.087538116 -0.014534838 -0.046258934
-0.06490673 0.020310111 -0.007318236 -0.09689884 -0.12907065 -0.05458915 -0.11111374 -0.16650282
-0.23898943 -0.21878207 -0.2372277 -0.14481321 0.01374735 -0.011010649 0.1783909 0.1257579
0.11669583 0.024757555 -0.042154334 -0.16243958 -0.27723157 -0.11492611 0.11728446 -0.0564386
-0.088984855 0.090063274 0.26608494 0.16177694 0.014172645 0.1151308 0.20453674 0.22740215
-0.118714914 0.090750806 0.06428317 0.035940327 -0.05907095 0.12888654 -0.003223666 -0.05654733
-0.06438395 -0.100613065 -0.1008368 0.13509168 -0.22863919 -0.053173844 -0.055748567 0.17504568
-0.012766482 -0.18640879 -0.050491445 0.16279536 0.034900848 -0.035829857 -0.2593102 -0.0899934
0.20706975 0.058526266 -0.14694707 -0.12526436 -0.088219166 0.07665694 0.073768504 0.06026415
-0.07414964 -0.10996576 0.12516977 0.02968806 -0.10116056 0.13491839 -0.10540977 0.18929519
0.14351127 -0.047923412 -0.10093871 0.21787253 0.16911465 -0.15741932 0.115893334 0.037754096
0.112661354 0.16995262 -0.24231035 0.12250955 0.082281075 0.12847841 -0.051486026 -0.37762472
0.16326906 0.06901569 0.05834726 -0.11937509 -0.09590523 0.22871912 0.13845856 -0.13760903
-0.14419968 -0.27718076 0.04124596 -0.17170076 -0.26813397 -0.22686909 0.032040324 -0.01615221
-0.3550569 0.012039967 -0.08044954 0.12653159 -0.18572769 -0.08966401 -0.11328358 -0.052345343
0.15778646 -0.174156 -0.17307617 -0.021493087 0.059850242 0.29156405
00000000: 952f 843d 5ef7 97bd ee20 83be 267f 8dbe
00000010: 57fd 19be 0731 c83d dd2c 32be eb67 ec3d
00000020: 7426 af3d 93f3 8ebd 6931 873e 7a43 083e
00000030: e2f8 0ebe ba5f 063e fdb1 1fbe 292d 973d
00000040: 31a2 813e 0a62 f13c 426b 07be 024b 08bd
00000050: 6477 38be 97dd 2d3e ebc6 113e 6402 343e
00000060: 9f07 2e3e edc1 6d3e 362b ff3d 1add 323e
00000070: 9432 b03d 2f47 b33d 8723 6ebc 027a 3dbd
00000080: d2ed 84bd 6461 a63c d0cd efbb e672 c6bd
00000090: 192b 04be df98 5fbd 9a8f e3bd b77f 2abe
000000a0: a5b9 74be 6808 60be d1eb 72be ea49 14be
000000b0: 913c 613c 0266 34bc 1bac 363e aec6 003e
000000c0: 39fe ee3d 5bd0 ca3c 06aa 2cbd 9056 26be
000000d0: 4cf1 8dbe 615e ebbd d632 f03d 292c 67bd
000000e0: b13d b6bd 1873 b83d 493c 883e dba8 253e
000000f0: 6234 683c b2c9 eb3d 1472 513e 1cdc 683e
00000100: ce20 f3bd 8fdb b93d e5a6 833d 2a36 133d
00000110: 61f4 71bd d5fa 033e 2444 53bb 2c9e 67bd
00000120: bbdb 83bd 390e cebd 8683 cebd 7955 0a3e
00000130: 6420 6abe d1cc 59bd 9c58 64bd 2d3f 333e
00000140: 822a 51bc f2e1 3ebe 1ed0 4ebd d4b3 263e
00000150: 31f4 0e3d 54c2 12bd 4ec4 84be 764e b8bd
00000160: 180a 543e 3db9 6f3d 4b79 16be 4d45 00be
00000170: 40ac b4bd 50fe 9c3d f113 973d 8bd7 763d
00000180: c4db 97bd ba35 e1bd 812c 003e 6034 f33c
00000190: 452d cfbd 0c28 0a3e 14e1 d7bd 99d6 413e
000001a0: 9ef4 123e 574b 44bd f4b8 cebd fa19 5f3e
000001b0: 642c 2d3e 8832 21be 7c59 ed3d 0aa4 1a3d
000001c0: ffba e63d 0f08 2e3e 3420 78be 49e6 fa3d
000001d0: fb82 a83d d88f 033e 03e3 52bd 0758 c1be
000001e0: 0130 273e 1958 8d3d 89fd 6e3d ed7a f4bd
000001f0: f669 c4bd 5835 6a3e 15c8 0d3e 62e9 0cbe
00000200: 15a9 13be a3ea 8dbe 86f1 283d 53d2 2fbe
00000210: db48 89be 5f50 68be b73c 033d a451 84bc
00000220: 05ca b5be 4843 453c bac2 a4bd 7f91 013e
00000230: 662f 3ebe c4a1 b7bd 3901 e8bd 1268 56bd
00000240: c692 213e f355 32be e13a 31be 4512 b0bc
00000250: 8725 753d e247 953e

layer1.0.bias f4 [6]
0.034223184 -0.018120248 0.06813074 -0.08874248 -0.1385314 -0.17103428
00000000: 9c2d 0c3d ea70 94bc 2188 8b3d 9ebe b5bd
00000010: 2ddb 0dbe 9c23 2fbe

layer1.1.weight f4 [6]
1.0443437 1.1096373 1.0284355 1.0190688 0.95762867 1.2161145
00000000: 0ead 853f 9808 8e3f c6a3 833f d970 823f
00000010: 2727 753f a4a9 9b3f

layer1.1.bias f4 [6]
-0.11744639 -0.08584337 -0.1745297 -0.07533893 -0.16604 -0.04801811
00000000: bc87 f0bd a6ce afbd eab7 32be 4c4b 9abd
00000010: 6406 2abe a3ae 44bd

layer1.1.running_mean f4 [6]
0.06894191 -0.07897178 0.15205503 -0.15048105 -0.063709885 -0.4190472
00000000: 6b31 8d3d f5bb a1bd 50b4 1b3e b417 1abe
00000010: 547a 82bd 5b8d d6be

layer1.1.running_var f4 [6]
0.042962242 0.048188977 0.039824575 0.059386764 0.06793119 0.18868767
00000000: 2df9 2f3d ce61 453d 181f 233d 893f 733d
00000010: 821f 8b3d 5737 413e

layer2.0.weight f4 [16, 6, 5, 5]
0.015746497 -0.07810262 -0.112626016 -0.19634824 -0.032340895 -0.105348304 -0.10828332 -0.12574561
-0.04547837 -0.05040868 -0.01647478 -0.08845501 -0.14769633 -0.028008264 0.07640679 0.015532935
0.13112329 -0.027240204 -0.017271535 -0.024221433 -0.037007105 0.22943208 -0.022239134 -0.061482634
0.0015786146 -0.01925449 -0.1198316 -0.047158808 0.062839866 0.01734069 -0.10280492 -0.06630868
0.0013313363 -0.023161134 0.09258822 -0.050968442 -0.015009234 -0.016255897 -0.06515388 0.04404492
-0.12992291 -0.037129134 -0.059675097 -0.062480707 -0.17129043 -0.04239536 -0.13851178 0.024977263
-0.08564285 -0.18075493 -0.0945913 0.0024289037 -0.022718651 -0.015092051 0.0803443 -0.080662236
-0.005427644 0.03950787 -0.09599554 -0.06519053 0.11483882 0.095121965 -0.058385532 -0.08697017
-0.115274265 0.055536922 0.00389484 -0.060797084 -0.031451635 -0.071871 -0.07801427 -0.13952518
-0.08612236 -0.08935446 -0.11402803 -0.118410036 -0.024252512 -0.048803944 -0.10243379 0.13266629
-0.00808935 0.13171612 -0.0751746 -0.057587042 -0.015594408 0.05985675 0.019968757 0.047189586
0.14719328 -0.06649836 0.05587536 0.038704682 0.018710928 -0.005042223 0.084331155 0.049053688
0.007278465 0.001722158 0.13711771 0.046268586 -0.07355201 -0.014574096 0.12639117 0.014680675
0.022234485 0.09686325 0.027130889 0.085040115 0.024377298 -0.049215723 0.092381455 0.02751396
0.015288007 -0.07968404 -0.09910264 0.06612528 0.04707447 0.060522173 -0.017528523 -0.015632298
-0.07921093 0.099233314 0.09894766 -0.06059679 -0.098235875 0.06791459 0.036402605 -0.057732776
0.113186955 0.17884058 0.14596789 -0.010245371 -0.015198888 0.10467225 0.030152237 0.017204592
0.017629975 0.09491034 0.015214298 -0.004285087 -0.038111668 -0.05819211 0.047737766 0.13958122
0.040772036 0.0030849748 -0.1584091 0.055621754 0.04353493 0.13609707 -0.04149981 -0.024329383
-0.0074962843 -0.10519304 -0.0868506 -0.11686339 0.02649574 -0.020482063 0.019327879 -0.09570945
-0.011098922 0.0138103245 0.106447905 0.073193826 -0.035509598 -0.04246675 -0.0014357615 0.11366972
0.05145992 -0.13603333 -0.007206841 0.077589676 0.061835133 -0.014896131 -0.020428684 -0.09277307
-0.20737827 -0.08468784 0.030002594 0.046134952 -0.044629842 -0.13749331 -0.10813366 -0.055605996
0.031635046 -0.20764199 -0.0602547 -0.007486788 0.035710283 0.119423606 -0.06286606 -0.18561906
-0.08028463 0.018682418 0.021747366 -0.05533808 -0.07765615 -0.10299224 0.04719075 0.106815115
-0.06849362 0.17084534 0.13420592 0.113747045 -0.028638612 0.03535392 0.097848535 0.0863663
-0.07257047 0.02135046 0.048906695 -0.05324445 -0.020273786 -0.058315486 -0.07880524 -0.010466077
-0.08614539 -0.070538096 -0.079597846 -0.07727831 -0.033142786 0.027818985 -0.094384395 -0.051147968
-0.12576869 0.0029674668 0.060523678 0.0055828784 -0.122323066 -0.25672477 0.18072142 0.11856434
0.047440294 -0.12202744 -0.0712248 0.18487726 0.12815829 -0.028237691 -0.108752 -0.035962306
0.16136909 0.13168801 0.03211134 -0.04435307 -0.079739586 0.14406598 0.12888458 -0.04103457
-0.24736808 0.054939497 -0.1243278 0.0147720445 0.1438799 0.045234226 0.0100260945 -0.07867949
00000000: ccfe 803c 44f4 9fbd 78a8 e6bd 830f 49be
00000010: e377 04bd dac0 d7bd a5c3 ddbd 75c3 00be
00000020: 8747 3abd 5579 4ebd 1ef6 86bc e627 b5bd
00000030: b53d 17be 9671 e5bc 2a7b 9c3d da7d 7e3c
00000040: 2f45 063e d926 dfbc 097d 8dbc 076c c6bc
00000050: c394 17bd 3ef0 6a3e d82e b6bc 37d5 7bbd
00000060: 84e9 ce3a 98bb 9dbc 456a f5bd 9829 41bd
00000070: 30b2 803d 100e 8e3c 638b d2bd d8cc 87bd
00000080: 3c80 ae3a 6bbc bdbc e59e bd3d 49c4 50bd
00000090: 4ae9 75bc 162b 85bc 666f 85bd 7268 343d
000000a0: 830a 05be b814 18bd e06d 74bd c5eb 7fbd
000000b0: c266 2fbe c2a6 2dbd 08d6 0dbe 1e9d cc3c
000000c0: 8565 afbd d217 39be 15b9 c1bd 3e2e 1f3b
000000d0: 771c babc a644 77bc 8d8b a43d 3e32 a5bd
000000e0: 61da b1bb 01d3 213d 4f99 c4bd 9d82 85bd
000000f0: 9e30 eb3d 4ecf c23d ab25 6fbd 6b1d b2bd
00000100: ea14 ecbd af7a 633d 9240 7f3b 5d06 79bd
00000110: 6ed3 00bd 1a31 93bd f2c5 9fbd b0df 0ebe
00000120: eb60 b0bd 79ff b6bd 8787 e9bd f680 f2bd
00000130: 34ad c6bc a5e6 47bd cfc8 d1bd acd9 073e
00000140: 3189 04bc 97e0 063e 24f5 99bd 64e0 6bbd
00000150: b07f 7fbc 5a2c 753d 8595 a33c de49 413d
00000160: d6b9 163e 4b30 88bd 90dd 643d cd88 1e3d
00000170: a947 993c 3b39 a5bb d0b5 ac3d 85ec 483d
00000180: 3180 ee3b 09ba e13a 9668 0c3e 2184 3d3d
00000190: 70a2 96bd 30c8 6ebc b06c 013e 3787 703c
000001a0: 1825 b63c 3d60 c63d 9941 de3c 8329 ae3d
000001b0: e6b2 c73c 6d96 49bd 7d32 bd3d f564 e13c
000001c0: 8d7a 7a3c 6331 a3bd 53f6 cabd b16c 873d
000001d0: 29d1 403d 19e6 773d fa97 8fbc 4e0f 80bc
000001e0: 5739 a2bd d63a cb3d 12a5 ca3d 5734 78bd
000001f0: e42f c9bd ce16 8b3d e61a 153d 3479 6cbd
00000200: 90ce e73d fc21 373e 9b78 153e 33dc 27bc
00000210: c204 79bc 685e d63d d301 f73c a5f0 8c3c
00000220: bd6c 903c 5a60 c23d 6445 793c ea69 8cbb
00000230: fb1a 1cbd da5a 6ebd ad88 433d 61ee 0e3e
00000240: 9400 273d 4a2d 4a3b ff35 22be a3d3 633d
00000250: af51 323d 085d 0b3e b4fb 29bd 6a4e c7bc
00000260: 64a3 f5bb 736f d7bd bade b1bd 1356 efbd
00000270: 980d d93c 00ca a7bc 8055 9e3c 5103 c4bd
00000280: 41d8 35bc b344 623c 5c01 da3d a5e6 953d
00000290: 8372 11bd 9df1 2dbd 2930 bcba accb e83d
000002a0: a3c7 523d 524c 0bbe 5d27 ecbb 56e7 9e3d
000002b0: d646 7d3d e70e 74bc 0e5a a7bc cfff bdbd
000002c0: f85a 54be d170 adbd 00c8 f53c 01f8 3c3d
000002d0: c8cd 36bd 0ccb 0cbe 2e75 ddbd 1dc3 63bd
000002e0: c093 013d 1aa0 54be a2cd 76bd bb53 f5bb
000002f0: f244 123d 5d94 f43d ecbf 80bd ec12 3ebe
00000300: 456c a4bd df0b 993c 8827 b23c 2faa 62bd
00000310: 300a 9fbd 98ed d2bd 164b 413d e2c1 da3d
00000320: 6246 8cbd 15f2 2e3e 476d 093e 36f4 e83d
00000330: 869b eabc 46cf 103d d064 c83d d1e0 b03d
00000340: d49f 94bd 29e7 ae3c 6352 483d da16 5abd
00000350: 3615 a6bc 38dc 6ebd a464 a1bd e979 2bbc
00000360: ff6c b0bd 4776 90bd 3204 a3bd 1744 9ebd
00000370: bbc0 07bd a4e4 e33c 9b4c c1bd 8880 51bd
00000380: 82c9 00be d579 423b ade7 773d 94f0 b63b
00000390: 8484 fabd 6e71 83be 090f 393e dcd1 f23d
000003a0: c150 423d 86e9 f9bd 4fde 91bd 7750 3d3e
000003b0: ed3b 033e bb52 e7bc 5eb9 debd 364d 13bd
000003c0: f03d 253e 39d9 063e 2e87 033d 91ab 35bd
000003d0: 824e a3bd 0886 133e 52fa 033e de13 28bd
000003e0: 0f4e 7dbe 3d08 613d 939f febd 7206 723c
000003f0: 4155 133e 8647 393d 7d44 243c b622 a1bd

layer2.0.bias f4 [16]
-0.08496985 -0.05040289 -0.018591212 -0.117514536 -0.13522692 0.007848631 0.012821666 -0.06778956
-0.07715158 -0.06170272 -0.06722596 -0.013018202 -0.068661526 -0.0713281 -0.089630984 -0.08314077
00000000: ac04 aebd 4373 4ebd 994c 98bc 76ab f0bd
00000010: ed78 0abe 8b97 003c f711 523c 41d5 8abd
00000020: a601 9ebd febb 7cbd c4ad 89bd 4c4a 55bc
00000030: 6a9e 8cbd 7814 92bd 7390 b7bd b545 aabd

layer2.1.weight f4 [16]
1.1112292 1.1509995 1.0746099 1.2045447 1.1241217 1.2253971 1.1322085 1.0742495
1.1740854 1.0738235 1.2310594 1.0645574 1.0928138 1.1201838 1.0648063 1.2395151
00000000: c23c 8e3f f453 933f d18c 893f 852e 9a3f
00000010: 38e3 8f3f d0d9 9c3f 35ec 903f 0281 893f
00000020: 6e48 963f 0c73 893f 5b93 9d3f 6b43 883f
00000030: 53e1 8b3f 2f62 8f3f 934b 883f 6ea8 9e3f

layer2.1.bias f4 [16]
-0.059100702 -0.024067467 -0.001298458 -0.11128936 -0.104659945 -0.016400209 -0.006065577 -0.077186935
0.00046731037 -0.11721496 -0.09257209 -0.06605912 -0.11206036 -0.07450043 -0.093642935 -0.07266715
00000000: 9413 72bd 2329 c5bc 0531 aaba adeb e3bd
00000010: f457 d6bd bb59 86bc bfc1 c6bb 2f14 9ebd
00000020: 5601 f539 660e f0bd 7096 bdbd 014a 87bd
00000030: e77f e5bd ae93 98bd dec7 bfbd 84d2 94bd

layer2.1.running_mean f4 [16]
-0.38848302 -0.9681368 -0.40626743 -0.50291735 -0.7127349 -0.15717596 -0.041612193 -0.27340052
-1.2800126 -1.2277611 -0.6928067 -0.17480744 -1.7516307 -1.433166 -1.0988762 -0.7379425
00000000: 3fe7 c6be d0d7 77bf 4902 d0be 31bf 00bf
00000010: cb75 36bf bcf2 20be 8c71 2abd 27fb 8bbe
00000020: 74d7 a3bf 4727 9dbf c85b 31bf b900 33be
00000030: 6f35 e0bf fc71 b7bf faa7 8cbf cde9 3cbf

layer2.1.running_var f4 [16]
1.1987091 1.9115824 0.8119276 1.148539 0.8080708 1.4751627 0.9418511 0.916577
3.1844265 1.043567 1.6868701 1.3925135 1.0826274 1.0490271 1.4753808 1.5726553
00000000: 4d6f 993f bbae f43f 7dda 4f3f 5303 933f
00000010: badd 4e3f 22d2 bc3f 271d 713f caa4 6a3f
00000020: a5cd 4b40 9a93 853f 5ceb d73f e23d b23f
00000030: 8993 8a3f 8546 863f 47d9 bc3f c54c c93f

fc.weight f4 [120, 784]
-0.05041111 0.01687379 -0.18081613 -0.06720006 0.08781504 0.05783765 -0.06287619 -0.010940012
-0.003700743 -0.161419 -0.0005390396 0.0907493 -0.025441492 -0.0667803 0.0021113872 -0.027408924
-0.056816313 -0.02521216 0.04084095 -0.037710477 -0.060796257 0.11640676 -0.016086102 0.01476963
-0.0038335777 0.082517736 0.046125848 0.13667852 -0.051057566 0.015565949 0.03744691 0.06457046
-0.023836505 0.008052241 0.043235123 0.099113375 0.07903094 -0.1551014 -0.1110752 -0.054207798
0.10237107 0.034560237 0.073580444 0.10462089 -0.028971052 -0.0061551514 -0.07747682 -0.0715858
0.054152858 -0.00836681 -0.033685245 -0.19573689 -0.099595115 -0.0635518 -0.022484839 -0.00894815
0.009438142 -0.15676278 -0.058088176 -0.028618522 -0.039233297 0.047393713 0.019375058 0.0030175033
-0.040699184 0.033578668 0.063225575 0.023522897 -0.08659615 0.05852002 0.1430162 0.021258842
-0.05270783 -0.011657771 0.0018131206 0.03941473 0.11609955 0.15076643 0.004731198 -0.024333173
0.0658185 0.105039194 -0.0096948 0.011941758 0.071213335 0.052997474 0.15092419 0.04355888
0.09888878 0.011635205 0.009779461 0.029269822 -0.04939124 0.0015825952 0.07476727 0.085957184
0.04700839 -0.018998213 -0.1279948 0.0066481023 0.11454151 0.10761148 -0.004210091 -0.01289405
-0.11192002 -0.015110518 0.027781207 0.007681645 0.097081 0.022950865 -0.003866095 -0.077211164
0.0981883 0.07418344 0.07826336 0.05024658 0.0025651718 0.022980826 -0.006258795 -0.013036629
-0.052111242 -0.002921732 -0.03068353 0.0009606607 -0.06626188 0.05395401 -0.021012329 -0.014751888
0.00253837 0.009962863 -0.044951517 -0.001529169 -0.017849967 -0.034017798 -0.044992007 -0.03460881
-0.05483136 0.00074686017 -0.020800948 0.06931053 -0.04854274 -0.021976275 -0.043780826 0.01089547
-0.0067312657 -0.0015052687 -0.021814741 -0.042668138 0.05386743 -0.013355645 -0.19051157 -0.130754
0.023459207 -0.14518915 0.065605775 -0.04076623 -0.045740902 -0.23258273 -0.062277723 0.14289187
0.0300465 -0.037800107 -0.042832527 0.020205198 -0.0016368183 -0.030861843 0.0101588685 -0.042672172
0.1657772 0.08292326 -0.007396675 0.03561029 -0.10392642 -0.03917797 -0.074500486 0.012149988
-0.08595128 -0.05931482 0.004339212 0.01321191 0.009799656 0.051036235 -0.061893634 -0.0030984178
-0.008391485 -0.067110434 -0.008377555 0.052291747 -0.0803591 0.041135132 0.016414223 0.01835959
0.018357394 0.04110246 0.184666 -0.01706347 -0.10075246 0.0120844375 0.104586534 0.04869627
0.06574494 -0.07767613 -0.021029457 -0.1064777 -0.0026794479 0.11290975 0.05369754 -0.014669275
-0.006487889 -0.05090119 0.11483899 0.12952414 0.10048913 -0.0803928 -0.09200603 -0.05616469
0.007295194 -0.035682037 -0.035860352 -0.05267654 -0.059579745 -0.003061734 -0.07111984 -0.08393044
-0.055263095 0.10021204 0.077708565 -0.019198433 -0.06412491 0.001229235 0.07552853 0.008130244
-0.022174584 -0.0428183 -0.021851659 0.057080887 0.0807151 0.08982372 -0.09078058 -0.07684841
0.023058573 -0.053798467 -0.015603601 -0.09258644 0.010093649 -0.04909369 0.052738022 0.05608276
0.03684795 -0.029219473 -0.042284306 0.024263078 0.05513909 0.0012669152 -0.0053801797 -0.0007654243
00000000: e17b 4ebd e73a 8a3c dd27 39be 2fa0 89bd
00000010: 5fd8 b33d 2ce7 6c3d 3bc5 80bd bc3d 33bc
00000020: 2a88 72bb 064b 25be 564e 0dba c5da b93d
00000030: ad6a d0bc 1cc4 88bd 335f 0a3b ae88 e0bc
00000040: 39b8 68bd bb89 cebc d748 273d 4d76 1abd
00000050: 7f05 79bd ab66 ee3d 00c7 83bc 51fc 713c
00000060: c33c 7bbb 0fff a83d 75ee 3c3d 74f5 0b3e
00000070: bd21 51bd 5208 7f3c ee61 193d 843d 843d
00000080: c644 c3bc 8ced 033c 5017 313d f4fb ca3d
00000090: f9da a13d e7d2 1ebe 657b e3bd ff08 5ebd
000000a0: eca7 d13d 098f 0d3d 58b1 963d 7a43 d63d
000000b0: b354 edbc 27b1 c9bb 2bac 9ebd 939b 92bd
000000c0: 63cf 5d3d f214 09bc 8af9 09bd 406f 48be
000000d0: 86f8 cbbd 7227 82bd 2032 b8bc 439b 12bc
000000e0: 70a2 1a3c 6c86 20be deed 6dbd 6471 eabc
000000f0: 18b3 20bd e91f 423d 71b8 9e3c 4ec1 453b
00000100: 30b4 26bd c989 093d 697c 813d 17b3 c03c
00000110: 5359 b1bd b0b2 6f3d d772 123e 0627 ae3c
00000120: 2ae4 57bd 3c00 3fbc 3ba6 ed3a 5771 213d
00000130: 9ac5 ed3d 8462 1a3e 2a08 9b3b 5d56 c7bc
00000140: dacb 863d ca1e d73d f0d6 1ebc 5da7 433c
00000150: 4cd8 913d e113 593d df8b 1a3e cc6a 323d
00000160: 3386 ca3d 96a1 3e3c 083a 203c 44c7 ef3c
00000170: 784e 4abd 156f cf3a 951f 993d 520a b03d
00000180: df8b 403d 24a2 9bbc 1211 03be 53d8 d93b
00000190: bd94 ea3d 6863 dc3d cef4 89bb 9141 53bc
000001a0: 5336 e5bd 1b92 77bc 6a95 e33c 4fb6 fb3b
000001b0: 67d2 c63d 7403 bc3c 505e 7dbb e320 9ebd
000001c0: f316 c93d 7ded 973d 8a48 a03d 5ccf 4d3d
000001d0: 711c 283b 4942 bc3c 9416 cdbb 9697 55bc
000001e0: 9972 55bd 877a 3fbb 075c fbbc d9d4 7b3a
000001f0: 4fb4 87bd e1fe 5c3d 0c22 acbc e7b1 71bc
00000200: c85a 263b 473b 233c 151f 38bd 666e c8ba
00000210: 183a 92bc 3f56 0bbd 8a49 38bd f8c1 0dbd
00000220: d996 60bd f0c8 433a c066 aabc aef2 8d3d
00000230: c1d4 46bd 9707 b4bc 8653 33bd ea82 323c
00000240: f391 dcbb 704c c5ba d4b4 b2bc c9c4 2ebd
00000250: 18a4 5c3d a3d1 5abc 7715 43be 60e4 05be
00000260: 862d c03c 77ac 14be 525c 863d 7efa 26bd
00000270: d05a 3bbd 2b2a 6ebe ed16 7fbd 3f52 123e
00000280: 1424 f63c 49d4 1abd 2971 2fbd 5f85 a53c
00000290: 828a d6ba fad1 fcbc 6271 263c 04c9 2ebd
000002a0: 80c1 293e acd3 a93d cf5f f2bb 18dc 113d
000002b0: 60d7 d4bd 1479 20bd b693 98bd be10 473c
000002c0: 3a07 b0bd 19f4 72bd f32f 8e3b c476 583c
000002d0: bd8e 203c 5f0b 513d 2e84 7dbd d30e 4bbb
000002e0: 707c 09bc 3271 89bd 0342 09bc df2f 563d
000002f0: 5093 a4bd 507d 283d 1f77 863c da66 963c
00000300: 3f62 963c 0e5b 283d 1519 3d3e b1c8 8bbc
00000310: 4e57 cebd cefd 453c 7731 d63d bd75 473d
00000320: 48a5 863d aa14 9fbd f845 acbc fb10 dabd
00000330: ad99 2fbb 3a3d e73d f4f1 5b3d 6657 70bc
00000340: 5c98 d4bb c47d 50bd b430 eb3d faa1 043e
00000350: 3fcd cd3d fba4 a4bd a86d bcbd f20c 66bd
00000360: 860c ef3b 5427 12bd 4ee2 12bd 5bc3 57bd
00000370: e409 74bd 5fa7 48bb 47a7 91bd b9e3 abbd
00000380: 8e5b 62bd f83b cd3d ab25 9f3d 0846 9dbc
00000390: ec53 83bd 481e a13a b4ae 9a3d b734 053c
000003a0: 79a7 b5bc 3e62 2fbd 4002 b3bc a6cd 693d
000003b0: f54d a53d 80f5 b73d 2beb b9bd b362 9dbd
000003c0: 55e5 bc3c c85b 5cbd 3fa6 7fbc f69d bdbd
000003d0: d55f 253c 7716 49bd d303 583d 09b7 653d
000003e0: e0ed 163d ad5d efbc 4f32 2dbd 5dc3 c63c
000003f0: 87d9 613d 9f0e a63a 384c b0bb c1a6 48ba

fc.bias f4 [120]
-0.026898755 -0.011118346 -0.016955957 0.026865358 -0.010321169 -0.051905826 -0.014145458 -0.0052620056
-0.0605216 0.018476289 0.053557266 0.018375142 -0.036023196 -0.07119802 -0.02010652 0.020780044
0.011990382 0.019011172 -0.011383304 -0.026575362 -0.017735515 0.06842656 -0.05309691 -0.057418067
-0.023568485 -0.005685776 -0.060784284 -0.024586784 0.099487685 -0.013920597 0.012115144 2.290172e-05
0.0025698526 -0.020561269 0.020264555 0.012996771 0.023864508 -0.0024417376 0.064737685 0.00077058194
0.008737116 -0.010928327 -0.005677585 0.049285367 -0.042787213 -0.055228498 0.027317563 -0.016769402
0.011268806 0.011613765 -0.029968642 -0.033998556 -0.00268953 -0.022118706 -0.011814381 0.0043404163
-0.015812008 -0.049240105 0.018480226 -0.0121883135 0.0005234472 -0.014203659 -0.060759235 -0.042074937
-0.028701784 -0.02689848 -0.015653428 0.0457878 0.050253723 0.029849825 0.021657832 0.013774141
-0.034078985 -0.0021576646 0.04797489 -0.018566199 0.01422294 0.0012896787 -0.0012069526 -0.059217684
-0.030816084 -0.022052916 -0.038115345 -0.018321984 -0.03009076 -0.038831428 -0.025908953 0.0061072027
0.006888397 -0.05013779 0.021628778 -0.020762663 -0.026435416 -0.056218147 0.008488805 0.044497594
-0.033796966 0.034807887 -0.01834214 0.041648127 -0.026689092 -0.030712016 -0.023022812 -0.03679762
0.0116550755 -0.07072166 -0.012960208 -0.023848338 -0.036727488 0.016855437 0.029995559 0.018966176
0.051299065 -0.0698105 -0.040220223 0.016831545 -0.033111677 -0.06100149 0.035462324 0.02883408
00000000: c75a dcbc b929 36bc 38e7 8abc bd14 dc3c
00000010: 1f1a 29bc 349b 54bd 5ac2 67bc e76c acbb
00000020: 7fe5 77bd 965b 973c dd5e 5b3d 7787 963c
00000030: 0f8d 13bd 44d0 91bd 6eb6 a4bc e93a aa3c
00000040: 4f73 443c 51bd 9b3c 0a81 3abc 93b4 d9bc
00000050: 124a 91bc 3923 8c3d 257c 59bd 352f 6bbd
00000060: b212 c1bc bf4f babb f1f8 78bd 396a c9bc
00000070: 33c0 cb3d 3713 64bc 997e 463c 121d c037
00000080: f96a 283b 1b70 a8bc da01 a63c 69f0 543c
00000090: 807f c33c 8f05 20bb 3195 843d e100 4a3a
000000a0: 1f26 0f3c ba0c 33bc 090b babb 74df 493d
000000b0: a541 2fbd 4737 62bd 15c9 df3c fc5f 89bc
000000c0: cca0 383c a947 3e3c cc80 f5bc 1242 0bbd
000000d0: d342 30bb 4a32 b5bc 1b91 41bc 0d3a 8e3b
000000e0: 2f88 81bc feaf 49bd d863 973c 7eb1 47bc
000000f0: f237 093a 77b6 68bc adde 78bd c556 2cbd
00000100: 0120 ebbc 335a dcbc 9e3b 80bc fd8b 3b3d
00000110: d9d6 4d3d 9f87 f43c c46b b13c efac 613c
00000120: 6896 0bbd 9b67 0dbb 5181 443d 2418 98bc
00000130: 5607 693c 700a a93a 9c32 9eba 3e8e 72bd
00000140: 0372 fcbc 51a8 b4bc d61e 1cbd fc17 96bc
00000150: e680 f6bc b40d 1fbd 033f d4bc ee1e c83b
00000160: 10b8 e13b 495d 4dbd d62e b13c 7616 aabc
00000170: 168f d8bc 0045 66bd a114 0b3c 1c43 363d
00000180: b06e 0abd b792 0e3d 4142 96bc 3a97 2a3d
00000190: 15a3 dabc c497 fbbc 569a bcbc 1ab9 16bd
000001a0: eef4 3e3c 85d6 90bd 0d57 54bc 975d c3bc
000001b0: 906f 16bd 6a14 8a3c 3fb9 f53c f45e 9b3c
000001c0: f81e 523d cff8 8ebd f6bd 24bd 4fe2 893c
000001d0: 1ca0 07bd b3dc 79bd f140 113d 7335 ec3c

fc1.weight f4 [84, 120]
-0.0032656265 0.3144585 -0.14704947 0.12795809 0.08489402 -0.21397623 -0.02475619 -0.077870615
0.040553704 0.075076975 -0.15261434 0.1807864 0.09349129 -0.06848459 -0.03781198 -0.0025902125
0.045482438 0.034095783 -0.0010753286 -0.05939058 -0.005148971 -0.0073704873 0.026504401 0.070726015
-0.0053440104 0.06493344 0.039944008 -0.051293585 0.098661125 -0.037076335 0.0342107 0.08401167
-0.11293999 -0.07188737 0.045279466 0.113979295 0.06158846 -0.08183874 0.07436306 -0.056624446
0.031616036 0.044906285 0.023718167 0.14677778 0.063556924 -0.08478054 -0.046471994 -0.07802477
0.1313572 -0.20694444 0.14886418 -0.046333574 0.06771087 -0.028847096 -0.014218005 -0.18400684
0.060808666 0.097675644 -0.13616954 -0.05434091 0.0039652307 0.08782688 -0.0074580023 -0.015775323
0.09137017 0.150112 0.064949535 -0.066138394 0.070961155 -0.15757279 -0.005407962 0.0006677055
0.015065691 -0.121198505 -0.014929072 -0.0761936 -0.05870408 -0.08138986 0.13039836 0.09414881
0.08495851 0.019344028 -0.090179004 -0.07856845 -0.085230656 -0.043491885 -0.057488196 0.039087832
-0.070718415 0.053841803 -0.070927374 -0.078421 0.11205767 0.17821395 0.123585865 -0.04527633
0.14494258 0.1182486 0.036499508 0.083010435 0.16876629 0.0080648605 0.020901132 0.14365369
-0.057110146 0.09025277 0.008465355 0.1564509 -0.046773337 -0.023087984 0.08608004 0.031157224
-0.08555713 0.04900287 0.05088216 0.006172649 0.03450346 0.031019416 0.022062832 -0.07791141
-0.11129261 -0.15229826 0.20865612 -0.017085241 -0.01600552 0.08935969 -0.0387659 0.023219818
-0.07472315 0.00545008 0.16001298 -0.009008462 0.08963518 0.036214545 0.089200005 0.073284835
-0.07791251 -0.05087356 -0.058597185 0.07093988 0.019718148 0.06983814 -0.050387528 0.09699819
-0.08202281 0.06051624 -0.039308533 -0.074366845 0.05770384 -0.030858189 0.05850581 0.0005116335
0.09603964 -0.049670536 0.089621104 -0.029552033 -0.049318735 -0.06954575 0.060046498 0.13599429
0.0048826 0.039200347 -0.058371447 0.08671177 0.010802664 0.10190473 0.25812554 0.005345135
-0.073559575 0.07449881 0.0011330026 -0.006841038 -0.0053673894 0.038698073 -0.04203213 0.11315939
0.00024958415 -0.014417725 0.116451055 0.0385485 -0.048706386 -0.06771249 -0.1626263 -0.060416356
0.045082908 -0.061242063 -0.043479744 0.09078038 -0.11859905 0.16968292 0.08218632 -0.030649338
0.11917517 0.10993174 0.031232143 0.119858734 0.013607572 0.17369106 -0.1872058 -0.11824717
-0.0383047 -0.0023388516 -0.0450052 -0.009870459 0.017685007 0.06310118 -0.039422423 0.08805745
-0.013818816 -0.059346188 0.017760543 -0.042393968 -0.083422646 -0.106881626 0.018867575 0.08637735
0.06985891 -0.012919338 -0.016244303 0.0764582 -0.037071496 0.08643305 -0.019302975 -0.019834021
0.07910681 -0.14885199 0.028763529 -0.012137429 0.068780005 0.23318061 -0.0015626966 0.030219482
0.0774304 -0.08817927 -0.0025373988 -0.04623993 0.04548483 0.031695932 0.061324246 0.08073016
-0.13641746 -0.062193014 -0.13095531 0.06484073 0.08436908 0.07928137 -0.07944081 0.14967668
-0.05277165 0.06117275 0.12578164 -0.006378487 0.06656823 0.07961076 0.0647916 0.03695378
00000000: 1f04 56bb b400 a13e 2394 16be 7207 033e
00000010: eadc ad3d 961c 5bbe 7ecd cabc a17a 9fbd
00000020: a41b 263d f5c1 993d ef46 1cbe 1220 393e
00000030: 5d78 bf3d a641 8cbd bce0 1abd 8ec0 29bb
00000040: cb4b 3a3d 05a8 0b3d 0af2 8cba 8943 73bd
00000050: b3b8 a8bb 2184 f1bb c21f d93c cdd8 903d
00000060: cf1c afbb d3fb 843d 549c 233d 3919 52bd
00000070: d80e ca3d 5bdd 17bd 8520 0c3d 4f0e ac3d
00000080: 154d e7bd af39 93bd f676 393d fa6d e93d
00000090: 2e44 7c3d 129b a7bd a94b 983d 09ef 67bd
000000a0: d17f 013d a7ef 373d 9a4c c23c ea4c 163e
000000b0: 222a 823d 6ba1 adbd 6b59 3ebd 73cb 9fbd
000000c0: 8082 063e 3ee9 53be da6f 183e 46c8 3dbd
000000d0: ffab 8a3d bf50 ecbc a3f2 68bc 4a6c 3cbe
000000e0: 8212 793d 2b0a c83d 0770 0bbe 9394 5ebd
000000f0: c4ee 813b 94de b33d 4262 f4bb 403b 81bc
00000100: 4920 bb3d f6b6 193e 4304 853d 9173 87bd
00000110: 1554 913d c35a 21be 4635 b1bb f508 2f3a
00000120: 17d6 763c ec36 f8bd 1199 74bc 640b 9cbd
00000130: b073 70bd baaf a6bd 2687 053e 17d1 c03d
00000140: bafe ad3d 5e77 9e3c c5af b8bd 7fe8 a0bd
00000150: 698d aebd 8c24 32bd be78 6bbd 901a 203d
00000160: d1d4 90bd 3989 5c3d 5f42 91bd 309b a0bd
00000170: 7e7e e53d b87d 363e 961a fd3d ac73 39bd
00000180: d46b 143e 522c f23d 8280 153d 6001 aa3d
00000190: 12d1 2c3e 7a22 043c da38 ab3c f419 133e
000001a0: 54ec 69bd 72d6 b83d 46b2 0a3c aa34 203e
000001b0: 6695 3fbd 0323 bdbc bb4a b03d 6f3d ff3c
000001c0: 9438 afbd 3cb7 483d d069 503d ef43 ca3b
000001d0: 8053 0d3d 6e1c fe3c 1dbd b43c 0490 9fbd
000001e0: 61ed e3bd 13f4 1bbe f3a9 553e 59f6 8bbc
000001f0: 021e 83bc 3702 b73d fec8 1ebd 7d37 be3c
00000200: 7308 99bd 9696 b23b 71da 233e 3a98 13bc
00000210: a692 b73d b455 143d 7eae b63d 5c16 963d
00000220: 9890 9fbd cb60 50bd 9a03 70bd ee48 913d
00000230: f487 a13c 4c07 8f3d 2763 4ebd fda6 c63d
00000240: 93fb a7bd e0df 773d fc01 21bd a54d 98bd
00000250: dd5a 6c3d 50ca fcbc caa3 6f3d 251f 063a
00000260: 6eb0 c43d 5573 4bbd 458b b73d 1b17 f2bc
00000270: 7102 4abd 016e 8ebd 51f3 753d 1642 0b3e
00000280: 38fe 9f3b 8b90 203d e616 6fbd f195 b13d
00000290: a8fd 303c 6db3 d03d 0829 843e 3e26 af3b
000002a0: 67a6 96bd d592 983d 4281 943a c92a e0bb
000002b0: ede0 afbb df81 1e3d e229 2cbd 1cc0 e73d
000002c0: 9eda 8239 5238 6cbc e47d ee3d 08e5 1d3d
000002d0: 5980 47bd d9ac 8abd 8287 26be 2477 77bd
000002e0: dba8 383d f5d8 7abd d117 32bd 10eb b93d
000002f0: 0fe4 f2bd 5cc1 2d3e 4d51 a83d 5214 fbbc
00000300: 1d12 f43d e423 e13d 8dda ff3c 7f78 f53d
00000310: 4bf2 5e3c 12dc 313e e1b2 3fbe 922b f2bd
00000320: 64e5 1cbd 6b47 19bb 5f57 38bd b5b7 21bc
00000330: 26e0 903c 313b 813d 6879 21bd 7757 b43d
00000340: 5168 62bc fd14 73bd 8f7e 913c 4ca5 2dbd
00000350: 7ed9 aabd c1e4 dabd 2c90 9a3c 9ce6 b03d
00000360: 3012 8f3d a2ab 53bc c612 85bc 1e96 9c3d
00000370: 48d8 17bd d003 b13d 4621 9ebc f57a a2bc
00000380: c002 a23d a86c 18be 7ea1 eb3c 11dc 46bc
00000390: 88dc 8c3d e6c6 6e3e 66d3 ccba d98e f73c
000003a0: d493 9e3d 5597 b4bd 7d4a 26bb 1566 3dbd
000003b0: 4d4e 3a3d 98d3 013d 222f 7b3d db55 a53d
000003c0: 05b1 0bbe 1abe 7ebd 2619 06be 37cb 843d
000003d0: b2c9 ac3d 455e a23d ddb1 a2bd d844 193e
000003e0: 1627 58bd 4790 7a3d e7cc 003e a102 d1bb
000003f0: ed54 883d f70a a33d 75b1 843d d95c 173d

fc1.bias f4 [84]
-0.03378395 0.029583974 -0.09391245 0.023289068 -0.042262483 0.069439 0.08630903 -0.02958532
-0.08858489 -0.04143424 0.023013085 -0.04379642 0.07316402 0.09001487 -0.04828591 -0.0030090131
-0.010067444 -0.042315293 -0.039485976 0.09154962 0.053572323 0.08808823 0.023464072 -0.08187837
0.15425193 -0.042814896 0.04290449 0.04874126 0.08334032 -0.09055261 -0.043642335 0.125477
-0.00986015 -0.021830376 0.1229978 -0.05518396 0.026009372 0.12153548 0.110364705 -0.020532748
-0.076653585 0.021223882 -0.029554877 0.008285501 -0.09843215 -0.034912974 -0.0070190243 -0.07614988
-0.0015375452 -0.09499028 -0.07411218 0.066743836 0.07358541 0.119652264 0.061126724 0.08561782
-0.050579756 -0.0693474 0.08168798 -0.006945209 0.08349608 -0.07143652 -0.090231046 0.034040738
0.026544813 0.037924327 0.061087757 -0.004919074 -0.1279116 0.099927604 -0.037932448 -0.053005803
-0.090315804 -0.029709496 0.04562899 -0.050117612 -0.0007619215 0.064421676 0.07200548 -0.08729466
0.03551182 0.076433174 -0.11713352 0.03302412
00000000: 0a61 0abd 175a f23c 2c55 c0bd b7c8 be3c
00000010: 6d1b 2dbd 0936 8e3d cac2 b03d ea5c f2bc
00000020: ff6b b5bd f3b6 29bd f085 bc3c e063 33bd
00000030: 05d7 953d b759 b83d 72c7 45bd dd32 45bb
00000040: ecf1 24bc cd52 2dbd 0cbc 21bd 5e7e bb3d
00000050: a76e 5b3d 9a67 b43d ba37 c03c d9af a7bd
00000060: 38f4 1d3e ac5e 2fbd 9ebc 2f3d eaa4 473d
00000070: 54ae aa3d a673 b9bd 4ec2 32bd 0b7d 003e
00000080: 778c 21bc 9ed5 b2bc 45e6 fb3d 9308 62bd
00000090: 9b11 d53c 98e7 f83d e406 e23d 4b34 a8bc
000000a0: 8efc 9cbd b5dd ad3c 121d f2bc e9bf 073c
000000b0: cc96 c9bd e800 0fbd d8ff e5bb 78f4 9bbd
000000c0: 7587 c9ba 448a c2bd 20c8 97bd feb0 883d
000000d0: f3b3 963d 3f0c f53d 0460 7a3d 6558 af3d
000000e0: b82c 4fbd 0206 8ebd 074c a73d a394 e3bb
000000f0: feff aa3d 4f4d 92bd 0ecb b8bd 4d6e 0b3d
00000100: 8274 d93c 8a56 1b3d 2837 7a3d 2f30 a1bb
00000110: 42fb 02be d8a6 cc3d 0e5f 1bbd 9d1c 59bd
00000120: 7ef7 b8bd 5461 f3bc 77e5 3a3d 2048 4dbd
00000130: b0bb 47ba 83ef 833d 9c77 933d 8bc7 b2bd
00000140: d874 113d ff88 9c3d b3e3 efbd 4d44 073d

fc2.weight f4 [10, 84]
0.041365582 -0.05812574 -0.0053093503 0.07095405 -0.092970364 -0.1907509 0.11646132 -0.08353878
-0.087169334 -0.15547553 -0.20838526 -0.05590877 -0.029105464 0.1099375 -0.0673635 0.07205544
0.0011037082 0.026201757 -0.12430537 -0.02545899 0.012670194 -0.13112617 0.060992837 -0.10579401
-0.18845539 -0.062277332 -0.06874318 0.014305544 -0.067741886 -0.18138164 0.14592786 0.13273121
0.14194952 0.084713005 -0.031078294 -0.23245285 -0.00575316 0.06802831 0.068346485 0.008167092
0.13264771 0.07438362 0.20128419 -0.06145683 0.14298345 -0.13326266 0.1121245 -0.008644795
0.03951514 -0.042026825 0.097281024 0.12764092 -0.094158955 0.014262222 -0.16415477 0.029093463
-0.08933638 0.09961253 -0.035511255 -0.06655459 -0.04279946 0.042363364 -0.050255194 -0.1409923
-0.13033605 -0.113256685 -0.043730255 -0.056389697 -0.06570194 -0.058052555 0.032087374 0.05209908
0.12438572 0.05520514 0.10088571 0.057659093 0.046079736 -0.2595059 -0.13031256 0.061869644
-0.040421505 -0.19030724 -0.06979021 0.19257407 0.052451838 0.13289514 -0.0980085 -0.14039765
-0.12090737 0.0735458 -0.077076726 0.06583154 -0.028482035 0.085813165 0.15214254 -0.030592278
-0.06026658 -0.063197084 -0.122910544 -0.14432909 0.16812015 -0.050783776 -0.046060327 0.14773634
0.07441688 -0.053206403 0.050893895 -0.0012329422 0.14813966 -0.10741597 -0.0003578593 0.18803807
0.024995247 -0.014270883 0.026708366 0.15735206 0.18233605 -0.052076142 0.13406003 -0.27065092
-0.091795824 0.17261508 -0.05446776 -0.083566144 -0.10450418 -0.20292148 0.0043140836 0.1188138
-0.034887776 0.04928394 -0.13012865 -0.15215784 0.1069279 0.016414491 -0.22200562 0.04285242
-0.13573927 0.092031084 0.044042576 -0.11726456 0.009443032 0.04204255 0.12004516 -0.059703883
0.11980923 0.014908945 -0.13303968 -0.094036266 -0.25118518 -0.04475127 0.10343544 -0.11348637
0.09598468 0.15838075 0.11543477 -0.20600908 -0.13900937 -0.051459234 -0.085275576 0.012372273
0.13560471 -0.0075379913 0.0769058 -0.10500979 -0.11725223 0.024910176 -0.08416909 -0.117686085
-0.17529185 0.09527024 -0.066285215 -0.20582809 -0.019072445 0.13998368 0.044101264 0.0643646
-0.19898506 -0.057529397 -0.2693556 0.055199318 0.07064439 -0.062006578 -0.043566875 -0.021374106
-0.06274355 0.12228041 0.069275476 -0.0040591755 -0.09272149 0.10604279 -0.028185057 0.06722054
-0.13111715 -0.032202788 0.076029316 -0.028689655 -0.03733107 0.11445487 0.10384836 -0.16185474
-0.008279168 -0.029533042 0.0657065 -0.07614383 -0.021113085 -0.14588958 0.07032023 0.020412758
-0.00091234857 -0.024253245 -0.23263249 0.10083502 0.14242882 -0.005114469 0.17378983 -0.11000365
-0.014424038 -0.06460129 0.077535085 -0.2155559 0.12118552 -0.007921969 -0.14186108 -0.0677238
-0.047773305 0.024323769 0.06933476 -0.18863304 0.0917979 -0.046008028 0.0818946 0.022889623
-0.19559349 -0.09187833 0.09521655 0.04823495 -0.13572249 -0.19576384 0.12820004 -0.11217926
0.060764648 0.052933015 0.13667686 0.08103248 0.02656789 -0.14711472 -0.11381999 -0.014251022
-0.0016523767 -0.19542664 0.06165132 -0.10649212 0.03611896 0.0621647 -0.061721243 0.05680731
00000000: f56e 293d 4215 6ebd 0ffa adbb 5b50 913d
00000010: 3f67 bebd 3454 43be 4683 ee3d 6116 abbd
00000020: d685 b2bd fa34 1fbe f262 55be 9800 65bd
00000030: 956e eebc e926 e13d e0f5 89bd cd91 933d
00000040: 4daa 903a 11a5 d63c d093 febd 5f8f d0bc
00000050: a596 4f3c f045 06be a0d3 793d 88aa d8bd
00000060: 73fa 40be 8416 7fbd 39c9 8cbd cd61 6a3c
00000070: 42bc 8abd 1cbc 39be 1d6e 153e b1ea 073e
00000080: 375b 113e 037e ad3d e897 febc 1f08 6ebe
00000090: 0185 bcbb 6d52 8b3d 3ef9 8b3d 44cf 053c
000000a0: cdd4 073e 7056 983d 711d 4e3e 28ba 7bbd
000000b0: 416a 123e 0276 08be 88a1 e53d e6a2 0dbc
000000c0: a1da 213d 5224 2cbd 463b c73d 4db4 023e
000000d0: 69d6 c0bd 18ac 693c 3018 28be 6a55 ee3c
000000e0: fef5 b6bd a701 cc3d 4074 11bd c64d 88bd
000000f0: 7d4e 2fbd 3585 2d3d 64d8 4dbd 4960 10be
00000100: d076 05be 1ff3 e7bd 7f1e 33bd e2f8 66bd
00000110: bd8e 86bd 84c8 6dbd 0d6e 033d d865 553d
00000120: f1bd fe3d c91e 623d 2b9d ce3d f12b 6c3d
00000130: 1bbe 3c3d f5dd 84be a870 05be 066b 7d3d
00000140: 0591 25bd e7df 42be 2bee 8ebd 2332 453e
00000150: bdd7 563d aa15 083e aeb8 c8bd 67c4 0fbe
00000160: 489e f7bd 2e9f 963d 67da 9dbd b0d2 863d
00000170: 2853 e9bc d0be af3d 41cb 1b3e a89c fabc
00000180: 17da 76bd 796d 81bd 86b8 fbbd 01cb 13be
00000190: b027 2c3e a602 50bd c1a9 3cbd 3248 173e
000001a0: e167 983d f5ee 59bd 1e76 503d ad9a a1ba
000001b0: ecb1 173e e7fc dbbd 109f bbb9 0d8d 403e
000001c0: d5c2 cc3c 6cd0 69bc 81cb da3c e620 213e
000001d0: 4db6 3a3e cb4d 55bd 0847 093e c292 8abe
000001e0: 73ff bbbd 02c2 303e 9619 5fbd ba24 abbd
000001f0: 4a06 d6bd a6ca 4fbe 285d 8d3b a654 f33d
00000200: 7ce6 0ebd f5dd 493d 7240 05be 44cf 1bbe
00000210: 04fd da3d af77 863c 7155 63be 0586 2f3d
00000220: 3cff 0abe cb7a bc3d fd65 343d 6728 f0bd
00000230: f2b6 1a3c cf34 2c3d 3dda f53d 0f8c 74bd
00000240: 8b5e f53d a644 743c 8e3b 08be 1696 c0bd
00000250: 589b 80be 1c4d 37bd f6d5 d33d 8b6b e8bd
00000260: 9e93 c43d 902e 223e 1169 ec3d 0bf4 52be
00000270: 7958 0ebe ebc6 52bd f6a4 aebd 13b5 4a3c
00000280: f6db 0a3e 4101 f7bb ca80 9d3d 5f0f d7bd
00000290: f021 f0bd 6d10 cc3c d860 acbd 6705 f1bd
000002a0: b57f 33be 0b1d c33d 8bc0 87bd 99c4 52be
000002b0: d13d 9cbc e257 0f3e 87a3 343d 96d1 833d
000002c0: bdc2 4bbe f2a3 6bbd fae8 89be ae18 623d
000002d0: 02ae 903d 9cfa 7dbd 2e73 32bd c018 afbc
000002e0: b17f 80bd 276e fa3d 4de0 8d3d d502 85bb
000002f0: c4e4 bdbd f62c d93d 59e4 e6bc ecaa 893d
00000300: 9343 06be 12e7 03bd 42b5 9b3d 9106 ebbc
00000310: 77e8 18bd 5167 ea3d 73ae d43d 40bd 25be
00000320: 59a5 07bc 47ef f1bc 2191 863d 4cf1 9bbd
00000330: 59f5 acbc 1464 15be 0e04 903d a838 a73c
00000340: ad2a 6fba beae c6bc 3637 6ebe 9782 ce3d
00000350: dcd8 113e 4797 a7bb f6f5 313e 9849 e1bd
00000360: cd52 6cbc ae4d 84bd b7ca 9e3d b0ba 5cbe
00000370: 1d30 f83d 25cb 01bc 0844 11be c7b2 8abd
00000380: f1ad 43bd a442 c73c 62ff 8d3d 0529 41be
00000390: 8a00 bc3d ea72 3cbd 5bb8 a73d 0583 bb3c
000003a0: a949 48be b52a bcbd e500 c33d 0392 453d
000003b0: d6fa 0abe 5176 48be df46 033e 3dbe e5bd
000003c0: 5ae4 783d 4ad0 583d 05f5 0b3e 5bf4 a53d
000003d0: e7a4 d93c 3ea5 16be 741a e9bd 1e7d 69bc
000003e0: 9094 d8ba ec1d 48be 1886 7c3d 8a18 dabd
000003f0: 79f1 133d 6aa0 7e3d 6acf 7cbd c8ae 683d

fc2.bias f4 [10]
-0.13202168 -0.054692768 -0.023355119 -0.041737556 -0.062336568 0.019869212 0.025081443 -0.005403179
0.070990615 0.0598779
00000000: b130 07be 8605 60bd 3c53 bfbc 00f5 2abd
00000010: a154 7fbd c2c4 a23c 9977 cd3c 270d b1bb
00000020: 8763 913d 8742 753d
